Train dataset size: 3680
Test dataset size: 3669
----------------------------------------------------------------
        Layer (type)               Output Shape         Param #
================================================================
            Conv2d-1         [-1, 64, 256, 256]           1,792
              ReLU-2         [-1, 64, 256, 256]               0
           Dropout-3         [-1, 64, 256, 256]               0
            Conv2d-4         [-1, 64, 256, 256]          36,928
       BatchNorm2d-5         [-1, 64, 256, 256]             128
              ReLU-6         [-1, 64, 256, 256]               0
           Dropout-7         [-1, 64, 256, 256]               0
         MaxPool2d-8         [-1, 64, 128, 128]               0
            Conv2d-9        [-1, 128, 128, 128]          73,856
             ReLU-10        [-1, 128, 128, 128]               0
          Dropout-11        [-1, 128, 128, 128]               0
           Conv2d-12        [-1, 128, 128, 128]         147,584
      BatchNorm2d-13        [-1, 128, 128, 128]             256
             ReLU-14        [-1, 128, 128, 128]               0
          Dropout-15        [-1, 128, 128, 128]               0
        MaxPool2d-16          [-1, 128, 64, 64]               0
           Conv2d-17          [-1, 256, 64, 64]         295,168
             ReLU-18          [-1, 256, 64, 64]               0
          Dropout-19          [-1, 256, 64, 64]               0
           Conv2d-20          [-1, 256, 64, 64]         590,080
      BatchNorm2d-21          [-1, 256, 64, 64]             512
             ReLU-22          [-1, 256, 64, 64]               0
          Dropout-23          [-1, 256, 64, 64]               0
        MaxPool2d-24          [-1, 256, 32, 32]               0
           Conv2d-25          [-1, 512, 32, 32]       1,180,160
             ReLU-26          [-1, 512, 32, 32]               0
          Dropout-27          [-1, 512, 32, 32]               0
           Conv2d-28          [-1, 512, 32, 32]       2,359,808
      BatchNorm2d-29          [-1, 512, 32, 32]           1,024
             ReLU-30          [-1, 512, 32, 32]               0
          Dropout-31          [-1, 512, 32, 32]               0
        MaxPool2d-32          [-1, 512, 16, 16]               0
           Conv2d-33         [-1, 1024, 16, 16]       4,719,616
             ReLU-34         [-1, 1024, 16, 16]               0
          Dropout-35         [-1, 1024, 16, 16]               0
           Conv2d-36         [-1, 1024, 16, 16]       9,438,208
      BatchNorm2d-37         [-1, 1024, 16, 16]           2,048
             ReLU-38         [-1, 1024, 16, 16]               0
          Dropout-39         [-1, 1024, 16, 16]               0
  ConvTranspose2d-40          [-1, 512, 32, 32]       2,097,664
           Conv2d-41          [-1, 512, 32, 32]       4,719,104
             ReLU-42          [-1, 512, 32, 32]               0
          Dropout-43          [-1, 512, 32, 32]               0
           Conv2d-44          [-1, 512, 32, 32]       2,359,808
      BatchNorm2d-45          [-1, 512, 32, 32]           1,024
             ReLU-46          [-1, 512, 32, 32]               0
          Dropout-47          [-1, 512, 32, 32]               0
  ConvTranspose2d-48          [-1, 256, 64, 64]         524,544
           Conv2d-49          [-1, 256, 64, 64]       1,179,904
             ReLU-50          [-1, 256, 64, 64]               0
          Dropout-51          [-1, 256, 64, 64]               0
           Conv2d-52          [-1, 256, 64, 64]         590,080
      BatchNorm2d-53          [-1, 256, 64, 64]             512
             ReLU-54          [-1, 256, 64, 64]               0
          Dropout-55          [-1, 256, 64, 64]               0
  ConvTranspose2d-56        [-1, 128, 128, 128]         131,200
           Conv2d-57        [-1, 128, 128, 128]         295,040
             ReLU-58        [-1, 128, 128, 128]               0
          Dropout-59        [-1, 128, 128, 128]               0
           Conv2d-60        [-1, 128, 128, 128]         147,584
      BatchNorm2d-61        [-1, 128, 128, 128]             256
             ReLU-62        [-1, 128, 128, 128]               0
          Dropout-63        [-1, 128, 128, 128]               0
  ConvTranspose2d-64         [-1, 64, 256, 256]          32,832
           Conv2d-65         [-1, 64, 256, 256]          73,792
             ReLU-66         [-1, 64, 256, 256]               0
          Dropout-67         [-1, 64, 256, 256]               0
           Conv2d-68         [-1, 64, 256, 256]          36,928
      BatchNorm2d-69         [-1, 64, 256, 256]             128
             ReLU-70         [-1, 64, 256, 256]               0
          Dropout-71         [-1, 64, 256, 256]               0
           Conv2d-72          [-1, 3, 256, 256]             195
          Softmax-73          [-1, 3, 256, 256]               0
================================================================
Total params: 31,037,763
Trainable params: 31,037,763
Non-trainable params: 0
----------------------------------------------------------------
Input size (MB): 0.75
Forward/backward pass size (MB): 932.00
Params size (MB): 118.40
Estimated Total Size (MB): 1051.15
----------------------------------------------------------------
Starting training...
…
