Train dataset size: 3680
Test dataset size: 3669
----------------------------------------------------------------
        Layer (type)               Output Shape         Param #
================================================================
            Conv2d-1         [-1, 64, 256, 256]           1,792
       BatchNorm2d-2         [-1, 64, 256, 256]             128
              ReLU-3         [-1, 64, 256, 256]               0
            Conv2d-4         [-1, 64, 256, 256]          36,928
       BatchNorm2d-5         [-1, 64, 256, 256]             128
              ReLU-6         [-1, 64, 256, 256]               0
            Conv2d-7        [-1, 128, 128, 128]          73,856
       BatchNorm2d-8        [-1, 128, 128, 128]             256
              ReLU-9        [-1, 128, 128, 128]               0
           Conv2d-10        [-1, 128, 128, 128]         147,584
      BatchNorm2d-11        [-1, 128, 128, 128]             256
             ReLU-12        [-1, 128, 128, 128]               0
           Conv2d-13          [-1, 256, 64, 64]         295,168
      BatchNorm2d-14          [-1, 256, 64, 64]             512
             ReLU-15          [-1, 256, 64, 64]               0
           Conv2d-16          [-1, 256, 64, 64]         590,080
      BatchNorm2d-17          [-1, 256, 64, 64]             512
             ReLU-18          [-1, 256, 64, 64]               0
           Conv2d-19          [-1, 512, 32, 32]       1,180,160
      BatchNorm2d-20          [-1, 512, 32, 32]           1,024
             ReLU-21          [-1, 512, 32, 32]               0
           Conv2d-22          [-1, 512, 32, 32]       2,359,808
      BatchNorm2d-23          [-1, 512, 32, 32]           1,024
             ReLU-24          [-1, 512, 32, 32]               0
           Conv2d-25          [-1, 512, 16, 16]       2,359,808
      BatchNorm2d-26          [-1, 512, 16, 16]           1,024
             ReLU-27          [-1, 512, 16, 16]               0
           Conv2d-28          [-1, 512, 16, 16]       2,359,808
      BatchNorm2d-29          [-1, 512, 16, 16]           1,024
             ReLU-30          [-1, 512, 16, 16]               0
           Conv2d-31            [-1, 512, 8, 8]       2,359,808
      BatchNorm2d-32            [-1, 512, 8, 8]           1,024
             ReLU-33            [-1, 512, 8, 8]               0
           Conv2d-34            [-1, 512, 8, 8]       2,359,808
      BatchNorm2d-35            [-1, 512, 8, 8]           1,024
             ReLU-36            [-1, 512, 8, 8]               0
           Conv2d-37          [-1, 512, 16, 16]       2,359,808
      BatchNorm2d-38          [-1, 512, 16, 16]           1,024
             ReLU-39          [-1, 512, 16, 16]               0
           Conv2d-40          [-1, 512, 16, 16]       2,359,808
      BatchNorm2d-41          [-1, 512, 16, 16]           1,024
             ReLU-42          [-1, 512, 16, 16]               0
           Conv2d-43          [-1, 256, 32, 32]       1,179,904
      BatchNorm2d-44          [-1, 256, 32, 32]             512
             ReLU-45          [-1, 256, 32, 32]               0
           Conv2d-46          [-1, 256, 32, 32]         590,080
      BatchNorm2d-47          [-1, 256, 32, 32]             512
             ReLU-48          [-1, 256, 32, 32]               0
           Conv2d-49          [-1, 128, 64, 64]         295,040
      BatchNorm2d-50          [-1, 128, 64, 64]             256
             ReLU-51          [-1, 128, 64, 64]               0
           Conv2d-52          [-1, 128, 64, 64]         147,584
      BatchNorm2d-53          [-1, 128, 64, 64]             256
             ReLU-54          [-1, 128, 64, 64]               0
           Conv2d-55         [-1, 64, 128, 128]          73,792
      BatchNorm2d-56         [-1, 64, 128, 128]             128
             ReLU-57         [-1, 64, 128, 128]               0
           Conv2d-58         [-1, 64, 128, 128]          36,928
      BatchNorm2d-59         [-1, 64, 128, 128]             128
             ReLU-60         [-1, 64, 128, 128]               0
           Conv2d-61          [-1, 3, 256, 256]             195
          Softmax-62          [-1, 3, 256, 256]               0
================================================================
Total params: 21,179,523
Trainable params: 21,179,523
Non-trainable params: 0
----------------------------------------------------------------
Input size (MB): 0.75
Forward/backward pass size (MB): 460.50
Params size (MB): 80.79
Estimated Total Size (MB): 542.04
----------------------------------------------------------------
Starting training...
…
