Train dataset size: 3680
Test dataset size: 3669
----------------------------------------------------------------
        Layer (type)               Output Shape         Param #
================================================================
            Conv2d-1         [-1, 64, 256, 256]           1,792
              ReLU-2         [-1, 64, 256, 256]               0
            Conv2d-3         [-1, 64, 256, 256]          36,928
       BatchNorm2d-4         [-1, 64, 256, 256]             128
              ReLU-5         [-1, 64, 256, 256]               0
           Dropout-6         [-1, 64, 256, 256]               0
         MaxPool2d-7         [-1, 64, 128, 128]               0
            Conv2d-8        [-1, 128, 128, 128]          73,856
              ReLU-9        [-1, 128, 128, 128]               0
           Conv2d-10        [-1, 128, 128, 128]         147,584
      BatchNorm2d-11        [-1, 128, 128, 128]             256
             ReLU-12        [-1, 128, 128, 128]               0
          Dropout-13        [-1, 128, 128, 128]               0
        MaxPool2d-14          [-1, 128, 64, 64]               0
           Conv2d-15          [-1, 256, 64, 64]         295,168
             ReLU-16          [-1, 256, 64, 64]               0
           Conv2d-17          [-1, 256, 64, 64]         590,080
      BatchNorm2d-18          [-1, 256, 64, 64]             512
             ReLU-19          [-1, 256, 64, 64]               0
          Dropout-20          [-1, 256, 64, 64]               0
        MaxPool2d-21          [-1, 256, 32, 32]               0
           Conv2d-22          [-1, 512, 32, 32]       1,180,160
             ReLU-23          [-1, 512, 32, 32]               0
           Conv2d-24          [-1, 512, 32, 32]       2,359,808
      BatchNorm2d-25          [-1, 512, 32, 32]           1,024
             ReLU-26          [-1, 512, 32, 32]               0
          Dropout-27          [-1, 512, 32, 32]               0
        MaxPool2d-28          [-1, 512, 16, 16]               0
           Conv2d-29         [-1, 1024, 16, 16]       4,719,616
             ReLU-30         [-1, 1024, 16, 16]               0
           Conv2d-31         [-1, 1024, 16, 16]       9,438,208
      BatchNorm2d-32         [-1, 1024, 16, 16]           2,048
             ReLU-33         [-1, 1024, 16, 16]               0
          Dropout-34         [-1, 1024, 16, 16]               0
  ConvTranspose2d-35          [-1, 512, 32, 32]       2,097,664
           Conv2d-36          [-1, 512, 32, 32]       4,719,104
             ReLU-37          [-1, 512, 32, 32]               0
           Conv2d-38          [-1, 512, 32, 32]       2,359,808
      BatchNorm2d-39          [-1, 512, 32, 32]           1,024
             ReLU-40          [-1, 512, 32, 32]               0
          Dropout-41          [-1, 512, 32, 32]               0
  ConvTranspose2d-42          [-1, 256, 64, 64]         524,544
           Conv2d-43          [-1, 256, 64, 64]       1,179,904
             ReLU-44          [-1, 256, 64, 64]               0
           Conv2d-45          [-1, 256, 64, 64]         590,080
      BatchNorm2d-46          [-1, 256, 64, 64]             512
             ReLU-47          [-1, 256, 64, 64]               0
          Dropout-48          [-1, 256, 64, 64]               0
  ConvTranspose2d-49        [-1, 128, 128, 128]         131,200
           Conv2d-50        [-1, 128, 128, 128]         295,040
             ReLU-51        [-1, 128, 128, 128]               0
           Conv2d-52        [-1, 128, 128, 128]         147,584
      BatchNorm2d-53        [-1, 128, 128, 128]             256
             ReLU-54        [-1, 128, 128, 128]               0
          Dropout-55        [-1, 128, 128, 128]               0
  ConvTranspose2d-56         [-1, 64, 256, 256]          32,832
           Conv2d-57         [-1, 64, 256, 256]          73,792
             ReLU-58         [-1, 64, 256, 256]               0
           Conv2d-59         [-1, 64, 256, 256]          36,928
      BatchNorm2d-60         [-1, 64, 256, 256]             128
             ReLU-61         [-1, 64, 256, 256]               0
          Dropout-62         [-1, 64, 256, 256]               0
           Conv2d-63          [-1, 3, 256, 256]             195
          Softmax-64          [-1, 3, 256, 256]               0
================================================================
Total params: 31,037,763
Trainable params: 31,037,763
Non-trainable params: 0
----------------------------------------------------------------
Input size (MB): 0.75
Forward/backward pass size (MB): 810.00
Params size (MB): 118.40
Estimated Total Size (MB): 929.15
----------------------------------------------------------------
Starting training...
…
