Train dataset size: 3680
Test dataset size: 3669
----------------------------------------------------------------
        Layer (type)               Output Shape         Param #
================================================================
            Conv2d-1         [-1, 64, 256, 256]           1,792
              ReLU-2         [-1, 64, 256, 256]               0
            Conv2d-3         [-1, 64, 256, 256]          36,928
       BatchNorm2d-4         [-1, 64, 256, 256]             128
              ReLU-5         [-1, 64, 256, 256]               0
         MaxPool2d-6         [-1, 64, 128, 128]               0
            Conv2d-7        [-1, 128, 128, 128]          73,856
              ReLU-8        [-1, 128, 128, 128]               0
            Conv2d-9        [-1, 128, 128, 128]         147,584
      BatchNorm2d-10        [-1, 128, 128, 128]             256
             ReLU-11        [-1, 128, 128, 128]               0
        MaxPool2d-12          [-1, 128, 64, 64]               0
           Conv2d-13          [-1, 256, 64, 64]         295,168
             ReLU-14          [-1, 256, 64, 64]               0
           Conv2d-15          [-1, 256, 64, 64]         590,080
      BatchNorm2d-16          [-1, 256, 64, 64]             512
             ReLU-17          [-1, 256, 64, 64]               0
        MaxPool2d-18          [-1, 256, 32, 32]               0
           Conv2d-19          [-1, 512, 32, 32]       1,180,160
             ReLU-20          [-1, 512, 32, 32]               0
           Conv2d-21          [-1, 512, 32, 32]       2,359,808
      BatchNorm2d-22          [-1, 512, 32, 32]           1,024
             ReLU-23          [-1, 512, 32, 32]               0
        MaxPool2d-24          [-1, 512, 16, 16]               0
           Conv2d-25         [-1, 1024, 16, 16]       4,719,616
             ReLU-26         [-1, 1024, 16, 16]               0
           Conv2d-27         [-1, 1024, 16, 16]       9,438,208
      BatchNorm2d-28         [-1, 1024, 16, 16]           2,048
             ReLU-29         [-1, 1024, 16, 16]               0
  ConvTranspose2d-30          [-1, 512, 32, 32]       2,097,664
           Conv2d-31          [-1, 512, 32, 32]       2,359,808
             ReLU-32          [-1, 512, 32, 32]               0
           Conv2d-33          [-1, 512, 32, 32]       2,359,808
      BatchNorm2d-34          [-1, 512, 32, 32]           1,024
             ReLU-35          [-1, 512, 32, 32]               0
  ConvTranspose2d-36          [-1, 256, 64, 64]         524,544
           Conv2d-37          [-1, 256, 64, 64]         590,080
             ReLU-38          [-1, 256, 64, 64]               0
           Conv2d-39          [-1, 256, 64, 64]         590,080
      BatchNorm2d-40          [-1, 256, 64, 64]             512
             ReLU-41          [-1, 256, 64, 64]               0
  ConvTranspose2d-42        [-1, 128, 128, 128]         131,200
           Conv2d-43        [-1, 128, 128, 128]         147,584
             ReLU-44        [-1, 128, 128, 128]               0
           Conv2d-45        [-1, 128, 128, 128]         147,584
      BatchNorm2d-46        [-1, 128, 128, 128]             256
             ReLU-47        [-1, 128, 128, 128]               0
  ConvTranspose2d-48         [-1, 64, 256, 256]          32,832
           Conv2d-49         [-1, 64, 256, 256]          36,928
             ReLU-50         [-1, 64, 256, 256]               0
           Conv2d-51         [-1, 64, 256, 256]          36,928
      BatchNorm2d-52         [-1, 64, 256, 256]             128
             ReLU-53         [-1, 64, 256, 256]               0
           Conv2d-54          [-1, 3, 256, 256]             195
          Softmax-55          [-1, 3, 256, 256]               0
================================================================
Total params: 27,904,323
Trainable params: 27,904,323
Non-trainable params: 0
----------------------------------------------------------------
Input size (MB): 0.75
Forward/backward pass size (MB): 688.00
Params size (MB): 106.45
Estimated Total Size (MB): 795.20
----------------------------------------------------------------
Starting training...
…
